app/params.pt (torch, 49108 bytes, 5 tensors)

C f4 [27, 10]
000000 bc d2 ef 3f dc e4 83 3e 7d d2 1e 3e 79 42 aa be
       1.8736186 0.25760543 0.15509982 -0.3325384
000010 e6 3f 56 3f 74 82 60 bd 9d 81 b6 bf a1 5b 65 3f
       0.8369125 -0.05481191 -1.4258305 0.8959294
000020 32 4f fa 3e b6 e5 84 3f 12 e9 27 3e 4a ce bd 3e
       0.48888546 1.0382602 0.16397503 0.3707145
000030 5b 06 45 bf e6 4c 0c bf a0 47 2a 3f ad 35 14 40
       -0.7696282 -0.5480484 0.6651554 2.315776
000040 a6 48 e8 3f 37 e0 8f bf d3 28 5d 3f 41 29 26 bf
       1.814717 -1.12403 0.8639042 -0.649067
000050 4e 70 58 3f d1 38 f6 3e 48 0b 0b c0 07 a9 bc 3e
       0.84546363 0.48090222 -2.1725636 0.36847708
000060 54 50 91 bc a4 49 dc 3e ac 72 99 3f 63 82 2b 3e
       -0.017738499 0.43024933 1.198812 0.16748957
000070 5d e2 8b bd b1 da 6b 3e 30 94 bd be 20 5c aa 3f
       -0.06830285 0.23032643 -0.3702712 1.3309364
000080 c1 59 32 3e cc da ed 3d 1a 4a 6d bf c0 fc 77 be
       0.17417051 0.11613998 -0.92691195 -0.2421751
000090 9a 26 83 bf b7 48 38 3f 04 a8 20 bf e2 46 b4 3e
       -1.0246155 0.71985954 -0.6275637 0.3521033
0000a0 69 00 40 3f 8f b7 11 3e 75 6c 66 bf 74 0a 0c 3f
       0.75000626 0.14230178 -0.9000924 0.5470345
0000b0 c9 e3 94 be dd 30 bf 3f 3f f0 f0 3e 4d 64 d0 3e
       -0.29080036 1.4936787 0.47058293 0.40701523
0000c0 2b 37 e9 3d 79 05 b2 be e0 34 0e bf 76 c1 fc 3e
       0.113874756 -0.347698 -0.5554943 0.4936635
0000d0 5f 26 9c bd 7e 6c 53 bf 44 83 fd bc 3e 8b d8 be
       -0.07624506 -0.8258742 -0.030946381 -0.42293733
0000e0 a5 d3 58 3f e0 87 59 be 71 32 83 bf 8f 40 40 bf
       0.84697944 -0.21243238 -1.0249768 -0.7509851
0000f0 3a b1 0d bd d8 e1 ec 3e 04 c1 79 bf 09 91 44 be
       -0.034592845 0.46266055 -0.97560143 -0.19195952
000100 b5 f4 cc be c2 ba 03 3e ed 06 bb 3f ac 70 29 3f
       -0.40030447 0.12864211 1.4611489 0.6618755
000110 96 f0 cb bc d7 9d 5b 3c 15 de 81 bd bd db 0b bf
       -0.024894994 0.013404331 -0.06341187 -0.5463217
000120 77 66 89 bf 8b 2f 02 3f 3d 69 17 3f 26 cb ee 3e
       -1.0734395 0.50853795 0.59144956 0.46639365
000130 5a 4b 97 3f 44 dc 50 3f 63 bb c1 3e 3a 9f 80 3e
       1.181987 0.815861 0.37838277 0.2512148
000140 27 c3 69 bf fb f2 65 bc 3d 7c fe be c8 9b 13 3d
       -0.91313404 -0.014034982 -0.4970416 0.036037236
000150 c1 1c 03 bf c8 23 14 3d 73 8e 1a 3f 23 4a a3 be
       -0.5121575 0.036166936 0.6037361 -0.318925
000160 1b 14 03 bd eb b1 56 3f a4 e6 6f bf 0e b6 22 3f
       -0.032001596 0.8386523 -0.93711305 0.63559043
000170 c5 cb 9f 3e c4 ee 87 bf eb 12 80 3d 71 ef ce 3e
       0.3121015 -1.061974 0.06253608 0.40417054
000180 f0 a4 c1 3c 2c e3 f1 bd c1 8a 7e bf f1 43 83 be
       0.023638219 -0.11810908 -0.9943047 -0.25637773
000190 64 64 5b bf a4 de 80 bf dc 27 fb bf 24 f2 21 bd
       -0.8570006 -1.0067945 -1.9621539 -0.039537564
0001a0 1a 8f 14 c0 e1 f6 e0 be a4 02 8c bf 37 5b 3d bf
       -2.3212342 -0.43938354 -1.0938306 -0.7396731
0001b0 a8 9d b2 bf 96 79 7a 3f b7 ab ba be 5a c1 b0 3e
       -1.3954363 0.97841775 -0.36459133 0.34522516
0001c0 e8 ce fa bd 9a f2 6e bf 27 c2 b1 be 7b 74 e7 be
       -0.122464955 -0.9333893 -0.3471844 -0.45206055
0001d0 8d 44 38 bf ca 2f a8 be 17 7c 1a 3f 24 1f 0d 3f
       -0.719796 -0.3284896 0.60345596 0.5512564
0001e0 12 9f 55 bf f0 83 f2 bd 56 47 93 be 9a 9b de bf
       -0.8344585 -0.11841571 -0.28765363 -1.7391236
0001f0 86 3c 76 bf b9 1e 3d 3f af 9b 9b bf 9f d0 ee be
       -0.961861 0.73875004 -1.2156886 -0.4664354
000200 45 44 bc 3e 92 c3 6d 3f 7b 8c 22 bf 0a 35 2f 3e
       0.36770836 0.9287654 -0.63495606 0.17110077
000210 8c d5 05 c0 44 22 e9 bf 46 d7 bd be b6 3e 18 3f
       -2.0911589 -1.8213582 -0.37078303 0.5947069
000220 59 f1 85 3f 82 94 1e 3f 0d e3 4d 3e b8 e2 14 40
       1.0464278 0.61945355 0.20106144 2.3263378
000230 df 08 a1 bb 54 ee 69 bf c6 c1 f2 be 7d e4 2d bf
       -0.0049143876 -0.91379285 -0.47413462 -0.6792677
000240 e8 3e f5 be 38 30 53 3f d9 76 ae 3e a3 76 fd 3e
       -0.47899556 0.8249545 0.3407505 0.49504575
000250 00 69 b2 bd 19 a8 30 bf 53 36 b4 3e 3f 7b ac 3d
       -0.087114334 -0.69006497 0.35197696 0.08421945
000260 ba f1 6e bf 42 5d 17 3e 15 b8 d4 3e 26 f0 92 3f
       -0.93337595 0.14781669 0.41546693 1.1479537
000270 5f 34 5a 3f 95 f9 23 be 0e 9d f0 bf b5 12 10 bf
       0.8523616 -0.16013177 -1.8797929 -0.56278545
000280 c7 6d 9e 3e 0f 24 5b 3f d8 3f 6d bf 99 fc 82 3e
       0.30943128 0.85601896 -0.9267554 0.25583342
000290 28 a5 f5 bb f1 df 08 be 9a 9d 27 3f 8a 3d 86 3e
       -0.007496495 -0.13366677 0.65474856 0.26218826
0002a0 35 75 81 3d 94 47 76 be 1f 84 b2 3f d5 84 00 40
       0.063211836 -0.24050742 1.394657 2.0081074
0002b0 9c 7d 26 40 2e 93 67 be a2 4c 06 c0 63 dd b1 be
       2.6014166 -0.22614738 -2.0984273 -0.34739217
0002c0 64 6a da be e2 42 ba 3d b6 1b 1e 40 f2 31 44 3f
       -0.42659295 0.09094788 2.4704413 0.7663871
0002d0 3c 14 69 3f a4 eb 27 be 8d f5 d1 be e7 73 81 3d
       0.910465 -0.16398484 -0.41007653 0.06320935
0002e0 f7 a8 6f bf f2 d4 45 3f 36 94 59 3f f8 2b bd 3e
       -0.93617195 0.77278054 0.84991777 0.36947608
0002f0 54 c9 9e be 03 a9 6c 3b 89 9d 5d bd 32 af 4d 3e
       -0.31012976 0.003611148 -0.054105315 0.20086363
000300 ce 1a c5 be 75 c0 09 3f 48 a8 96 be 56 6d 08 3f
       -0.38497013 0.5380929 -0.29425263 0.53291833
000310 1c 5a 2f be cf 37 37 be 90 a2 79 be b5 ed 04 bf
       -0.17124218 -0.17892383 -0.24378419 -0.5192521
000320 b3 72 55 3e d5 bb f5 3e b9 31 21 bf 5d d9 de 3e
       0.20844536 0.47994867 -0.62966496 0.4352521
000330 3a c6 f5 be b6 5f 48 3f 89 8d 02 3f 72 c5 15 3f
       -0.48002797 0.78271043 0.50997216 0.585044
000340 d7 54 99 3e d8 cd 50 bf e8 ba 10 bf 88 25 01 3e
       0.2994754 -0.8156409 -0.56535196 0.12611973
000350 2d cc e1 3d 1f 25 29 bf ff 71 66 3f 93 51 06 3e
       0.110252716 -0.6607227 0.90017694 0.13117056
000360 a6 ef 09 3f 86 ea 28 3e be 4b d9 bf 0f 33 75 bd
       0.538813 0.16495714 -1.697624 -0.059863146
000370 13 32 37 3d 91 83 80 be 2e c4 68 bf df 11 d9 3d
       0.04472549 -0.25100377 -0.90924346 0.10599112
000380 16 7c ba bf b3 b9 cf bd fb 0f 32 bf fd c5 b8 3f
       -1.4569118 -0.10142841 -0.69555634 1.4435421
000390 00 09 93 bf eb 83 b9 3e 75 92 80 bd 2c e3 c9 be
       -1.1487122 0.36233458 -0.062779345 -0.3943113
0003a0 e4 f6 14 be 13 a1 11 3e d3 22 e8 be fb df 38 be
       -0.14547306 0.14221601 -0.4533907 -0.18054192
0003b0 f2 c0 55 3f 44 28 83 3f f9 d5 1e bf 87 65 1d 3f
       0.83497536 1.0246663 -0.62045246 0.61483043
0003c0 e2 1b 97 3e 8a a0 09 be 7a 55 47 be 7e 4f 2d be
       0.2951346 -0.13440147 -0.194662 -0.16924855
0003d0 8d 7a dd be 21 cf 50 be 3d 99 c1 3e 42 4e 77 3f
       -0.4325756 -0.20391513 0.37812224 0.96603787
0003e0 bc 94 3b 3d 39 87 68 bf b1 f6 03 bf 8f de b6 bd
       0.04579614 -0.90831333 -0.51548296 -0.089291684
0003f0 8a 7e db 3e c9 cc 87 bf 9a e2 d5 bd 0e ed 38 bd
       0.4286998 -1.060937 -0.104436114 -0.045147948

W1 f4 [30, 200]
000000 fb b8 22 bf de e1 30 3e 26 ac a7 bf a6 54 0f 3f
       -0.6356351 0.17273661 -1.309941 0.5598854
000010 0f 41 2d bf 0a 2b 5e 3e 19 78 3a 3e 31 85 69 3e
       -0.67677397 0.21696106 0.18209876 0.22804715
000020 88 eb fa be 84 17 fe 3e 7f a4 89 bf a8 0a dc bf
       -0.4900782 0.49627316 -1.0753325 -1.7190752
000030 1d 61 eb bd 4b ed 49 bf 22 2f 1d bf c4 4a 69 3d
       -0.11493132 -0.78877705 -0.61400044 0.056956068
000040 de 03 2b 3f 5a ea ef be 4e 69 18 3d 09 66 13 3f
       0.66802776 -0.46858484 0.0372098 0.5757757
000050 4c da 87 3e e2 9e 08 bf 9f ee 35 3f 89 62 a2 3e
       0.26533735 -0.53367436 0.7106723 0.317158
000060 64 12 81 3f 3e cf 99 bd 8a e5 50 3e 2c 4d 9e 3d
       1.0083737 -0.075102314 0.20400062 0.07729563
000070 c4 23 7a bf ff 6c 92 3c c9 01 93 be cd c6 75 3f
       -0.97710824 0.017874239 -0.287123 0.9600647
000080 29 df 09 bf f3 97 ec be 6e 73 b4 be d8 1f a1 3d
       -0.5385614 -0.46209678 -0.35244316 0.07867402
000090 58 4c e9 bf de b3 df be 83 18 6a bf 31 0b 0e 3f
       -1.8226423 -0.43691915 -0.9144365 0.55485827
0000a0 0a 03 9b bf 90 29 2d bf b3 fc c1 be 4e ef b7 3d
       -1.2110302 -0.67641544 -0.37888107 0.089811906
0000b0 12 f7 bc 3d c1 da 4f 3f 6f 6b fe 3e f2 7c 22 bf
       0.092268124 0.81193167 0.4969134 -0.634719
0000c0 da 8a 83 3f b6 41 88 3f 0b c1 fb 3e 7e ec 92 3e
       1.0276749 1.0645053 0.49170718 0.28696054
0000d0 ce 4d 98 3f 78 d5 c7 3e 2c b1 dc 3f eb 71 4d 3f
       1.1898744 0.3903005 1.7241569 0.8025195
0000e0 d5 9e b6 3f d9 df ad 3e 00 4a b7 3f 27 b3 9d 3f
       1.4267222 0.33959845 1.4319458 1.2320298
0000f0 1b df 18 bf d5 ee 02 40 43 25 c4 3e 05 a3 ac 3f
       -0.5971543 2.0458272 0.38309678 1.348725
000100 62 52 4c 3f f7 6b dc 3e 99 58 24 3f e9 86 9f 3f
       0.79813206 0.4305112 0.6419769 1.2463046
000110 2b 81 4c 3f c6 69 f5 3e 1c 2b 51 3c 9e 61 1d bf
       0.79884595 0.4793226 0.012766626 -0.61477077
000120 f3 c7 83 3f f4 cd 72 be fb 8f f5 be d9 c1 95 bf
       1.0295395 -0.23711377 -0.4796141 -1.1699783
000130 05 63 c0 3f a0 f0 2b bf 5a 6e 8c be 44 1c f4 be
       1.5030218 -0.6716404 -0.27427942 -0.47677815
000140 0b 69 ba 3f fb ea 87 bd b9 e5 0a bf 37 a8 3e 3f
       1.4563307 -0.06636616 -0.5425678 0.74475425
000150 14 74 44 bf d6 c1 8e bf 16 f6 ba be 75 5a c1 bd
       -0.7673962 -1.1152904 -0.36515874 -0.094410814
000160 ed 6d 94 3f 81 3d ac bf e9 4c eb 3d ae 63 c3 be
       1.1596047 -1.345627 0.11489279 -0.38161987
000170 a6 86 d8 3f 09 bd a6 bf c0 a7 87 3f a5 d3 8e be
       1.6916091 -1.3026439 1.0598068 -0.27895847
000180 eb 66 2a bf 25 8f da bf 0f c5 e7 be 02 e9 43 bf
       -0.6656329 -1.7074934 -0.4526753 -0.76527417
000190 1b 32 e7 be 8d e5 96 3f 5f 8a 7d bf 9c 7a 5a 3f
       -0.45155415 1.1788803 -0.9903926 0.8534334
0001a0 de e5 28 bd 31 da 63 bf ba 29 ad be 36 1d 04 bf
       -0.041234843 -0.8900481 -0.33820897 -0.5160707
0001b0 fc d4 5d 3f e4 b4 13 bf e3 f2 cd bf c1 5e ce 3e
       0.86653113 -0.5769789 -1.6089748 0.40306666
0001c0 8a 58 00 bf 12 5a 65 3f d9 b7 df 3e 80 70 91 3f
       -0.501351 0.8959056 0.43694952 1.1362457
0001d0 f0 a0 3e bf 73 c9 ad bf d3 31 6b be 94 ee 20 bf
       -0.7446432 -1.3577102 -0.22968225 -0.6286404
0001e0 6c 05 9c bf 1f d5 cc bd b6 aa 51 3f 6f f7 29 3f
       -1.2189155 -0.10001587 0.8190111 0.6639318
0001f0 91 ac c8 be d7 5a 1e 3f 97 dd da 3f d6 c7 57 3e
       -0.39194158 0.6185736 1.7098874 0.21072325
000200 18 d6 ee 3e cc 9f 78 bf 0e a8 0a 3f 07 00 9c 3f
       0.46647716 -0.9711883 0.5416268 1.2187508
000210 39 cc d7 3e 24 b2 d8 be 7c 3e 8c bd b0 69 9c bd
       0.42147997 -0.4232341 -0.068478554 -0.07637346
000220 48 59 eb 3f c7 43 c7 be 33 de af bf b0 51 c2 3e
       1.8386621 -0.38918898 -1.3739685 0.37952948
000230 28 74 c8 bb d3 5d 30 bf 5c 00 78 bf 48 eb a7 bf
       -0.0061173625 -0.68893164 -0.9687555 -1.3118677
000240 25 1b 81 3f b2 3f 15 bf 9c b2 14 bf 5c 9f 1b be
       1.0086409 -0.58300316 -0.58085036 -0.1519751
000250 13 38 97 3d 1e 80 3d be a3 51 00 40 6a 27 85 3c
       0.07383742 -0.18505904 2.0049827 0.016254146
000260 bc bd 2d be b3 2d 3d 3f b1 0a ac bf 44 59 73 bf
       -0.16966909 0.73897856 -1.3440763 -0.95058084
000270 51 d6 e5 be f0 1e 08 bf bb 57 24 bf c8 05 c8 3c
       -0.44890073 -0.53172207 -0.64196366 0.02441682
000280 31 3f e5 3f 60 35 2a 3f e4 d0 6a be b7 7a c2 bf
       1.790991 0.66487694 -0.22931248 -1.51937
000290 ce 6e b0 3d 21 c6 11 bf b0 63 04 be cb a0 ca bf
       0.08614884 -0.56942946 -0.12928653 -1.583032
0002a0 fe f5 64 bf cc e7 02 bf 49 f4 a1 3f 32 24 5e be
       -0.89437854 -0.51134944 1.2652675 -0.21693495
0002b0 4f e7 e6 be 9d 8d 5c 3e 2d 83 93 3e b3 3d d6 3e
       -0.4509835 0.21538396 0.28811017 0.41843948
0002c0 e7 7b 6a be 15 dc f6 bf d0 34 88 3d c9 ca ce 3e
       -0.22898827 -1.9285914 0.06650698 0.40389088
0002d0 0d 6d e4 3e 80 11 d3 3f 8c 94 d5 bf 90 86 be be
       0.4461445 1.6489716 -1.6685958 -0.37212038
0002e0 26 d8 a8 3f 03 d7 63 be 61 26 d9 bf bb a8 c5 bf
       1.3190963 -0.22249989 -1.6964837 -1.5442117
0002f0 43 80 d7 3e 3f 90 67 3f c5 2d 30 3f 1c d8 8d 3f
       0.42090043 0.9045448 0.6881984 1.1081576
000300 ab a1 7f be 35 31 89 bd 52 51 d2 3d fc c5 90 3d
       -0.24964015 -0.066988386 0.10269417 0.070690125
000310 a5 db 77 3f b2 83 dc be 9a d0 06 40 b8 c3 12 be
       0.96819526 -0.43069226 2.106482 -0.14332473
000320 7d 97 15 bf e6 08 9c bf b9 1e 7b bf 9d 8a d4 be
       -0.5843428 -1.2190216 -0.98093754 -0.41512004
000330 3c b4 eb 3e aa a9 2e 3f a3 8a 10 3f 7f 1c 92 bf
       0.46035945 0.68227637 0.5646154 -1.1414946
000340 33 48 1c bf 06 81 02 3f e1 8d f2 be aa 54 d3 bf
       -0.6104767 0.50978124 -0.4737387 -1.6510212
000350 a4 3d e2 3e 88 8e 82 3f 80 4c da be 04 c5 43 3f
       0.44187653 1.0199747 -0.4263649 0.76472497
000360 ed 5e b6 3e 47 f0 59 3e ae 04 97 bf 14 89 5a 3f
       0.35619298 0.21283065 -1.1798303 0.85365415
000370 78 5b 0b 3e 33 7e 4d bf 8e 23 f0 bf f6 7c 9c bb
       0.13609111 -0.8027069 -1.876085 -0.0047756387
000380 e7 f0 8f bf c2 6a 4c bf 7f 9c c8 3f f9 3c 0f bf
       -1.1245393 -0.798504 1.5672759 -0.5595241
000390 c6 d1 01 3f 4a 16 a3 bf c3 7f 8d 3f 55 7e 09 be
       0.50710714 -1.2741177 1.1054615 -0.13427098
0003a0 c1 b6 c2 bc 2c 03 21 3f 4e 37 10 3d 5e 79 5f be
       -0.023768784 0.62895465 0.035208993 -0.21823642
0003b0 41 10 07 bf 63 ee ed bf 42 e3 a3 bf 04 7d d7 3f
       -0.52759176 -1.8588375 -1.2803729 1.6835027
0003c0 d0 46 b9 be 01 12 95 3e e6 d0 cc be 31 1c 9a be
       -0.36186838 0.29115298 -0.40003127 -0.30099633
0003d0 0d f8 a3 be a1 38 a9 3e 43 87 60 bf da f9 c1 3e
       -0.32025185 0.33051017 -0.87706393 0.37885934
0003e0 e1 1a 82 bd 12 80 8a 3f 05 7c bb be 46 38 ef bd
       -0.06352783 1.0820334 -0.36618057 -0.11680655
0003f0 4f 87 0e 3f f5 08 f4 3f 24 e8 94 3f e0 6b 52 bf
       0.55675215 1.9065233 1.1633344 -0.82195854

b1 f4 [200]
000000 ba ac 43 c0 f0 af e6 bf d5 60 6a bf 16 75 15 40
       -3.0574174 -1.8022442 -0.91554004 2.3352714
000010 5c 41 29 bf 0c 9f e2 3f e5 92 d7 bd 3c 58 00 c0
       -0.66115355 1.7704787 -0.10526065 -2.0053854
000020 bf d0 ae bf 1e c8 62 3f 83 42 45 3f c9 70 b6 bf
       -1.3657454 0.88586605 0.77054614 -1.4253169
000030 4e 9a bf bd b6 5b 07 40 1c 0b 8e 3f c7 fc 8a bf
       -0.09355603 2.1149726 1.109714 -1.0858392
000040 6e d1 b2 bf 02 b6 83 bf 00 8b c2 bf b8 79 13 40
       -1.3970163 -1.0289919 -1.519867 2.3043041
000050 8b a3 22 bf b7 61 36 40 71 f8 76 3d 10 05 31 3e
       -0.63530797 2.849714 0.060295526 0.17287087
000060 b4 b9 cf 3f e4 52 e8 3f ce 13 ce 3f ce f8 83 bf
       1.6228547 1.8150296 1.6099794 -1.0310304
000070 5f f8 ba 3f ff f9 ab bf 72 6a 63 3f 3a 6f 40 3e
       1.4607047 -1.3435668 0.888343 0.1879243
000080 7e 0e 26 3e ab 46 0a c0 85 74 46 bf 94 ca a1 bf
       0.16216466 -2.1605632 -0.77521545 -1.2639947
000090 99 88 a1 bf 56 57 97 be 91 84 16 be cf b4 ec 3f
       -1.2619811 -0.2955882 -0.14699008 1.8492678
0000a0 24 c4 be bd 31 58 81 bf 75 d4 d7 3f b3 b3 f9 bf
       -0.093147546 -1.0105039 1.6861712 -1.9507965
0000b0 e4 1f b5 be 38 ac d8 be 9f 6c d1 be 24 63 46 bf
       -0.35375893 -0.42318892 -0.40903184 -0.77495027
0000c0 a5 8f 73 3f 4a 33 59 bf 22 7f 98 be 90 6c 7c bf
       0.9514106 -0.84843886 -0.29784495 -0.98603153
0000d0 63 98 12 be 30 90 9f 3f 0d 1c 63 bf 29 d4 49 3f
       -0.14315943 1.2465878 -0.8871468 0.78839356
0000e0 1c 78 8b 3f 18 87 bf 3f 46 94 82 3f ff bd e7 3f
       1.089603 1.4963102 1.02015 1.8104857
0000f0 84 20 7d 3f 41 54 b7 3f e9 00 19 be fa 3f d1 be
       0.9887774 1.4322587 -0.14941753 -0.40869123
000100 20 9f 26 40 58 29 5e be f7 47 96 3f da 80 b1 bf
       2.6034622 -0.21695459 1.1740712 -1.3867447
000110 ce a7 3c 3f b3 63 93 bf a2 74 31 3f fa 50 91 bf
       0.7369355 -1.1514801 0.6931859 -1.1352837
000120 41 14 2b 3e a2 58 8f bf 3d 7e 82 3e ea 6d 22 c0
       0.16706945 -1.1198924 0.25486937 -2.5379586
000130 35 ea 6d 3f ae 6a 90 bf d2 32 84 3d 1b ca 21 bf
       0.92935497 -1.1282556 0.06455006 -0.63199013
000140 cb 3a 97 3f 11 9b 41 3f 6d 84 c4 bf 4d c3 5a b9
       1.1814817 0.7562724 -1.5352913 -0.00020862855
000150 54 60 8d 3f a3 46 6b be a5 ad 28 bf 2c bb d4 3e
       1.1045022 -0.22976165 -0.6588996 0.4154905
000160 06 29 ed bf 11 68 a7 3e 9d 7b 37 40 9e e0 95 3f
       -1.8528144 0.32696584 2.8669198 1.1709173
000170 6d fd bb be cd 51 43 3f 40 2e 23 3f 58 2a 93 bf
       -0.36716786 0.76296693 0.63742447 -1.1497297
000180 c2 b6 0e 3f 4e c6 52 bf 99 e7 0f 3e 3b 7f 2d c0
       0.55747616 -0.8233384 0.14053191 -2.7108905
000190 40 3d 23 bf c3 fd 40 3d bb 05 58 bd 8b 5b c4 3f
       -0.63765335 0.047117006 -0.05273984 1.5340437
0001a0 9c 8b da 3f 3f 61 6d 40 e1 88 43 c0 6f a8 b6 be
       1.7073855 3.7090604 -3.0552294 -0.3567538
0001b0 59 db 13 40 21 6e 36 c0 be c1 b7 3f 06 38 08 40
       2.310263 -2.8504717 1.4356 2.1284194
0001c0 43 d5 ce 3f 91 c5 69 be 69 a9 bd 3f 4c af 06 c0
       1.6158832 -0.22829272 1.4817325 -2.1044493
0001d0 a0 71 83 3d 91 98 14 bd 21 2d b9 bf 43 6e b3 bf
       0.064181566 -0.03627831 -1.4466897 -1.4018024
0001e0 9b 81 d2 3f 5d f8 8a 3e ed 2f 4b 3f 8f 2c 1f 40
       1.6445802 0.2714261 0.79370004 2.4870946
0001f0 5d fb cf bf 48 13 95 3f 20 f2 82 bd f8 5b 81 bf
       -1.6248585 1.1646509 -0.06393838 -1.0106192
000200 31 d8 ce bf 73 c6 68 3f 57 16 7c bd c9 55 b6 be
       -1.6159726 0.9092781 -0.061544742 -0.35612324
000210 eb d4 48 3f dd 71 6b 3e bd c8 de 3f 55 5b 54 3e
       0.7844989 0.22992654 1.740501 0.20737965
000220 d1 d4 0f 3f 36 fc 75 bd f9 82 97 3f fc a2 6a bf
       0.5618411 -0.06005498 1.1836845 -0.91654944
000230 1b 80 24 c0 b7 44 ae bf 40 f5 f1 bd 0e 68 f4 bf
       -2.570319 -1.361472 -0.11814356 -1.9094255
000240 6c d7 1b 40 18 ee f1 3e 71 f5 8d bf 1d 2a 9e 3f
       2.4350233 0.47251964 -1.1090528 1.2356602
000250 6c e0 91 be c3 3b 7a 3f 9b ad 68 bf df 81 c0 3f
       -0.28491533 0.9774744 -0.908899 1.5039634
000260 00 ab 31 c0 85 87 b8 3f 09 9e 20 3f 7a 77 e0 be
       -2.776062 1.4416357 0.6274114 -0.43841153
000270 b1 44 d4 3f ed ea d1 be 33 19 31 bf d0 d1 08 3f
       1.6583463 -0.40999547 -0.69179076 0.5344515
000280 cb 1b 5c 40 86 8b 62 bf 1a 0f 0c c0 c3 34 3f 3f
       3.4391963 -0.88494146 -2.1884217 0.74689883
000290 ae d7 9a 3e c3 5a 53 3e 4a 09 15 3f 4d 78 b7 3f
       0.30242676 0.20640092 0.582173 1.4333588
0002a0 e4 23 74 3f 90 c0 8e 3f 0b df b6 3f 0a a9 7c bf
       0.95367265 1.1152515 1.4286817 -0.98695433
0002b0 8f 05 71 bd e5 73 93 bf d0 27 07 be 78 f6 02 3f
       -0.05884319 -1.1519743 -0.13198781 0.5115733
0002c0 22 e3 7f 40 63 64 1f bf 9c 8a f4 3c fb 23 ad bf
       3.998238 -0.6226255 0.02985125 -1.3526605
0002d0 40 8c ca 3f a0 a8 04 be 05 b0 c9 bf 4a 47 3c 3f
       1.5824051 -0.1295495 -1.5756842 0.7354628
0002e0 c7 a6 29 3f d8 a5 b5 3f 2f a0 9f 3f 3e 9a 5d bf
       0.6627011 1.4191236 1.2470759 -0.8656348
0002f0 c5 3f bc be 4a 41 3a bf 40 6b 8a bf de 4e 01 40
       -0.36767402 -0.72755873 -1.081398 2.0204387
000300 35 81 0c 40 ea 68 b1 3f d5 88 59 be d1 c3 9b bf
       2.1953862 1.3860142 -0.21243604 -1.2169133
000310 a0 f2 95 3e af 0b 81 3e f8 0f 00 c0 9a 99 ad 3d
       0.2928667 0.25204226 -2.0009747 0.08476563

W2 f4 [200, 27]
000000 5e 65 a7 be f0 49 85 bf b2 62 50 be 1d 18 1b bf
       -0.32694525 -1.0413189 -0.2035015 -0.6058367
000010 74 87 e7 3e 31 a6 15 bf ef 68 2e bf eb 9a f9 3e
       0.4522053 -0.5845671 -0.68128866 0.48751006
000020 b8 9d bf bd 02 44 0e be ce 2c 62 bd d7 5b 82 3d
       -0.09356254 -0.1389313 -0.05521851 0.06365173
000030 99 a9 23 3f cb 31 e0 3d bd d9 77 be 3c 4a 32 be
       0.6393066 0.10946997 -0.24204154 -0.1741113
000040 f8 fa 66 bf de 0b 4f bf ec bd 57 3e dc 07 83 be
       -0.902267 -0.8087748 0.21068543 -0.25591934
000050 99 04 f0 be ce b1 18 3e 9e 83 b9 3e 0b 35 bc 3e
       -0.46878508 0.14911577 0.36233228 0.3675922
000060 7e 25 e2 be 7e 0f 04 3e 80 be ed bd 28 bd 5c be
       -0.4416923 0.12896535 -0.116086006 -0.21556532
000070 c4 66 a9 be dc 21 1e bf 29 fb 33 bf b7 22 75 be
       -0.33086216 -0.61770415 -0.70305115 -0.23939024
000080 42 ab ed 3c 5d fe 32 3f 15 c9 04 3e f6 6c 95 3e
       0.029012326 0.6991938 0.12967332 0.29184693
000090 33 78 96 be a6 4a 3e 3f 15 bf a1 3f e4 d4 df 3d
       -0.2938858 0.74332654 1.2636439 0.109292775
0000a0 f8 a4 c8 be 7c 0a 18 bd 2b 73 22 bf 12 e9 51 3e
       -0.3918836 -0.037119374 -0.6345698 0.20499066
0000b0 8c 8b cf 3f 80 a7 21 3b 67 9b a4 be 37 2e ed be
       1.6214461 0.0024666488 -0.32149813 -0.46324322
0000c0 22 c5 16 bf d4 15 5e 3f 91 2c 95 bf 39 87 86 3d
       -0.5889455 0.8675206 -1.1654226 0.065687604
0000d0 c4 95 ff 3e 7a 58 b3 3f 6a 1e 51 3f 26 95 d3 3c
       0.4991895 1.4011376 0.81687033 0.025827955
0000e0 53 ac ee bc d7 f0 33 bd 8b 41 e3 bb ac 1f 28 bf
       -0.029134905 -0.043930855 -0.0069353036 -0.6567333
0000f0 4b 6a a5 bf d3 cd 20 3e d3 47 d5 3d 88 6d 66 3d
       -1.2923063 0.15703516 0.1041409 0.0562568
000100 38 78 97 bf 6c 78 03 bf 67 29 ac 3f 41 1c c8 bd
       -1.1833563 -0.51355624 1.3450135 -0.09771014
000110 e1 8d 81 3f 5d 6e da bd fb 35 c9 3e af cb 73 3e
       1.0121423 -0.106655814 0.39298996 0.23808168
000120 a6 0d a4 3f f8 52 6f bd f5 35 c6 3e 59 5c cb 3e
       1.2816665 -0.058428735 0.3871304 0.39718893
000130 34 6c 50 be 64 c6 94 3d 04 df 38 3f 2d 28 f0 3e
       -0.20353776 0.072644025 0.72215295 0.46905652
000140 a4 a3 4f 3f 19 a6 87 3e 28 0b 07 3f 09 36 16 3f
       0.8110907 0.2649391 0.527514 0.586762
000150 85 27 d4 bd 53 32 08 be 56 03 1f be 69 79 c8 be
       -0.103591 -0.13300447 -0.15528616 -0.3915513
000160 7e 70 a1 be 75 a5 54 be 15 e1 07 be ce a6 b0 be
       -0.31531137 -0.20766242 -0.13269456 -0.34502262
000170 e3 cc 01 be fb 8f da 3e a6 78 a0 bd e9 f0 53 3e
       -0.12675814 0.42687973 -0.07835512 0.20697369
000180 4c 40 29 3f 1a 68 64 3d 7b ff 15 3e ce d5 44 3f
       0.66113734 0.05576334 0.1464824 0.7688874
000190 78 99 06 bb f9 4c 6b 3e 20 80 ef 3e 27 d7 a5 3e
       -0.0020538252 0.22978581 0.4677744 0.3239071
0001a0 1b c8 84 be 10 b9 c6 be 5c ac d5 be e6 03 ad be
       -0.25933918 -0.38813066 -0.41733062 -0.33792037
0001b0 42 48 f3 be 00 42 8d be 38 bd e5 be eb dd df be
       -0.47516066 -0.27589417 -0.44870925 -0.43723997
0001c0 ff 41 fe bd 69 b3 a8 bd 0f fd 9d bc be ba b1 be
       -0.124149315 -0.08237345 -0.019285707 -0.34712785
0001d0 93 4d 7f bd 6a a9 f5 bd 3d 47 8a 3e 62 61 db be
       -0.06232984 -0.11995204 0.27007475 -0.42847735
0001e0 3f 4e 04 be 59 3c eb bd 9e 6b fb bd eb 1d da be
       -0.12920474 -0.1148612 -0.12276386 -0.4260095
0001f0 09 fc ad be 0c a7 2c 3f 8e d3 63 3e c3 29 20 bf
       -0.3398135 0.67442393 0.2224867 -0.62563723
000200 b2 a3 2d 3e c0 f4 12 bf 60 3c 1d bd 31 da 89 bd
       0.16956976 -0.5740471 -0.038387656 -0.0673107
000210 18 56 ac bf 25 2d 32 3e e0 89 8a bd 67 f7 a7 3c
       -1.3463774 0.17400034 -0.06764579 0.020503713
000220 1d 91 e9 3d 6c a8 a9 bd 9e 89 12 3f 71 ee 42 3e
       0.11404631 -0.08284077 0.5724124 0.1903627
000230 a2 17 bf bd f8 8d 4b 3f 11 ac 17 3e 19 5b 0a 3e
       -0.093306795 0.795135 0.14811732 0.13511313
000240 e7 7a 2f 3e c8 67 ec 3e 9e b0 2b 3f 49 ec c0 3e
       0.17136727 0.4617293 0.6706637 0.3768027
000250 4e bc 44 bc ea cb f7 be 5e 63 ea 3e ff 63 c3 3e
       -0.012007786 -0.48397762 0.45778936 0.38162228
000260 a8 a5 da bd 0e 19 80 3d 92 63 c9 be 07 ec 2a be
       -0.10676128 0.06254779 -0.3933378 -0.166916
000270 32 d9 53 3f ee 70 2f bb 78 a9 b5 3e b9 23 12 bf
       0.8275329 -0.0026770192 0.35480857 -0.5708576
000280 8e b8 cc 3e 6d 44 e0 3d 0a 74 81 3e d0 24 d2 3e
       0.39984554 0.10950551 0.25283843 0.4104371
000290 16 cf 06 3e 5a f4 0e 3f c5 db 27 3f 9b b0 33 3f
       0.13164935 0.558416 0.65569717 0.70191354
0002a0 ee 72 0c bd 99 66 1a 3f 94 8c 69 3f e8 d9 39 3f
       -0.034289293 0.603128 0.9123013 0.72598124
0002b0 07 dd 6f 3f 80 bf 79 bd df 19 d4 3e ae b7 fd 3e
       0.93696636 -0.060973644 0.41425988 0.495542
0002c0 c6 12 35 3e d3 08 66 3e 5e 4c 80 3f 04 6f 6d be
       0.17682943 0.22464304 1.0023305 -0.2318688
0002d0 80 07 27 3f 07 cc 14 3f a0 e7 dd 3e 8f 86 f9 3e
       0.6524582 0.5812382 0.43340778 0.48735473
0002e0 f3 2a 34 3f d4 b7 04 3e 1c a0 42 3f 29 28 42 3f
       0.70378035 0.1296075 0.7602556 0.7584253
0002f0 da 20 62 3f 6f f3 c0 3e 81 ff c9 3f 10 d9 55 3f
       0.8833138 0.37685725 1.5781099 0.83534336
000300 73 9f 5d bf db c9 44 bf 29 49 cc 3e a6 8b 07 bf
       -0.86571425 -0.76870507 0.39899567 -0.5294746
000310 45 28 3f 3e 49 37 78 3e 91 a1 b7 3e 22 b9 3c 3e
       0.18667705 0.2423984 0.35865453 0.18429998
000320 e8 d4 cc bf 95 b6 4a 3c d4 e6 41 bf 43 90 31 bf
       -1.6002474 0.0123726325 -0.7574284 -0.6936075
000330 2c 73 ea be 28 32 29 3f 04 22 83 3e 99 00 79 bf
       -0.45790994 0.6609216 0.2561189 -0.97266537
000340 02 68 a5 3f ea 70 c0 3e 66 13 1a be 19 9f ad 3f
       1.2922366 0.37586147 -0.15046462 1.3564178
000350 c2 4c 8e 3f 96 0c 8a 3f 9e da 0a c0 7e ce 83 bd
       1.1117175 1.0785091 -2.1695933 -0.0643587
000360 cf a0 82 3e a5 f7 4a 3e 92 b6 c9 bd 87 a4 09 3f
       0.25513312 0.19821031 -0.09849276 0.53766674
000370 5c 6f 9c 3e 02 cc aa 3e 21 27 74 be 48 14 81 be
       0.3055371 0.3335877 -0.23843051 -0.25210786
000380 e9 c3 b8 bd 53 bd 3a 3e 66 96 bf be 44 8e 7c bd
       -0.09021742 0.18236284 -0.37419432 -0.061659113
000390 42 2a 7f 3d 92 2e ae 3d 34 37 c9 3d 8a bb cc 3d
       0.06229616 0.08504976 0.09824982 0.09996708
0003a0 7b 0e 4b 3f 08 75 36 3e e8 7d 01 3f 4b 4c a8 be
       0.7931897 0.17818081 0.5058274 -0.32870707
0003b0 11 27 03 3a 50 04 a4 be 40 11 15 bf 57 43 19 bf
       0.0005003075 -0.3203454 -0.58229446 -0.5986838
0003c0 3e ae d2 be db 2f eb 3e 7e a6 f6 3e 80 c7 de be
       -0.4114856 0.45934948 0.48173898 -0.4351158
0003d0 73 b5 73 3d 7c 0a 49 3f 7a 7a 07 be 17 d3 69 3f
       0.059499215 0.7853162 -0.13230315 0.9133772
0003e0 e0 d6 10 be d3 db 95 3f 04 20 d7 3e b6 6e 67 bf
       -0.14144468 1.170771 0.42016613 -0.90403306
0003f0 f8 6a a7 be b7 ba 49 3f 06 a6 64 3f b4 15 39 3f
       -0.32698798 0.7880053 0.8931583 0.7229874

b2 f4 [27]
000000 cc 1d 40 3e 07 bf 91 3f 62 4e ea 3f 28 f1 20 3f
       0.18761367 1.1386422 1.830517 0.62867975
000010 ea 1b db 3f 40 e1 2d be 7d db 8e bf 6a cd ad 3e
       1.7117894 -0.16980457 -1.1160733 0.3394578
000020 29 be ac 3f 4c c0 07 3d 47 49 c8 bf be 43 87 bf
       1.3495532 0.033142373 -1.5647362 -1.0567548
000030 f6 49 59 3f 2d 6f ee 3e c9 c6 86 3f 34 56 84 3f
       0.8487848 0.46569195 1.0529414 1.0338807
000040 5a 16 1a c0 0b 22 93 3f 51 dc db be 6a 77 b6 be
       -2.4076142 1.1494764 -0.42941526 -0.3563798
000050 33 cb a9 3f 6d 94 cb bf d5 68 6c 3f 17 da c4 3c
       1.3265136 -1.5904671 0.9234746 0.024029775
000060 ab 43 7f 3e 79 79 39 bf 6f 35 74 be
       0.24928157 -0.7245098 -0.23848508
